models/regression/neural_networks/2023-02-16_13:10:26/model.pt (torch, 2003 bytes, 3 tensors)

layers.0.weight f4 [8, 11]
-0.055600822 -0.024783015 -0.016998293 -0.056288972 -0.014835186 0.021348407 -0.022840314 -0.009993502
0.033275835 -0.06936738 -0.010405074 0.3422671 -0.10525857 0.14686547 0.1811396 0.36497244
0.0476217 0.3045003 -0.09353304 -0.15635723 -0.15059526 0.13857624 0.2534107 0.001006284
0.1476772 0.038187496 0.16266558 -0.011571892 0.21168555 -0.041909058 -0.12104549 -0.2322007
0.1291729 -0.097429544 0.077882096 0.08935867 -0.1093935 -0.049174853 -0.10643746 -0.16648662
0.11882954 0.35632044 -0.06707094 0.041545846 0.039342836 -0.06985366 -0.032759607 -0.056170873
0.0006969302 -0.02049322 -0.031922486 -0.014733318 0.232327 -0.13974012 -0.0060481704 -2.7797087e-06
-1.0006654e-05 -1.8995834e-06 -4.3910157e-05 9.636893e-06 4.5021743e-06 -1.2851322e-05 1.0571649e-05 -3.082433e-05
-3.63017e-05 1.04178725e-05 -0.038920496 -0.023330944 -0.0004014442 -0.044638626 -0.0072722514 0.0064282613
-0.018542591 -0.0033016624 0.036805056 -0.06815359 -0.015371821 0.20417286 0.022545943 0.30795217
0.024329118 0.14881156 0.0029639658 0.036994837 -0.05331988 -0.03659199 0.12526603 0.16416807
00000000: b0bd 63bd c005 cbbc 0140 8bbc 448f 66bd
00000010: 480f 73bc dbe2 ae3c 9c1b bbbc c9bb 23bc
00000020: 3e4c 083d 7c10 8ebd 0b7a 2abc a23d af3e
00000030: ce91 d7bd e763 163e a97c 393e abdd ba3e
00000040: f90e 433d 77e7 9b3e 408e bfbd 1c1c 20be
00000050: a535 1abe eee6 0d3e 0cbf 813e 4ae5 833a
00000060: b138 173e 7e6a 1c3d ce91 263e 0898 3dbc
00000070: 19c4 583e d5a8 2bbd b3e6 f7bd 05c6 6dbe
00000080: e745 043e 2489 c7bd a680 9f3d ae01 b73d
00000090: b309 e0bd 926b 49bd e2fb d9bd 787b 2abe
000000a0: e75c f33d a26f b63e 7d5c 89bd fa2b 2a3d
000000b0: f425 213d 700f 8fbd f02e 06bd 6e13 66bd
000000c0: 32b2 363a 66e1 a7bc 27c1 02bd 0464 71bc
000000d0: 21e7 6d3e 0918 0fbe bb2f c6bb 088b 3ab6
000000e0: 40e2 27b7 30f5 feb5 2c2c 38b8 24ae 2137
000000f0: 6211 9736 029c 57b7 e35c 3137 5f49 01b8
00000100: a742 18b8 6cc8 2e37 196b 1fbd 8920 bfbc
00000110: ee78 d2b9 fed6 36bd 114c eebb 2aa4 d23b
00000120: a2e6 97bc b460 58bb e6c0 163d 1c94 8bbd
00000130: 17da 7bbc b112 513e 45b2 b83c e8ab 9d3e
00000140: dc4d c73c 0f62 183e 183f 423b e687 173d
00000150: f265 5abd 7ce1 15bd bd45 003e ad1b 283e

layers.0.bias f4 [8]
0.042428825 0.0046376414 -0.10692294 0.2645822 0.2147588 -5.3714815e-05 0.04329496 0.048276164
00000000: d9c9 2d3d 5bf7 973b 6afa dabd 5177 873e
00000010: bbe9 5b3e d84b 61b8 0e56 313d 3abd 453d

layers.2.weight f4 [1, 8]
-0.11356176 0.61923903 0.44105285 -0.49440932 -0.33483607 -3.0024912e-06 -0.098753884 0.41268158
00000000: 1193 e8bd 7386 1e3f aed1 e13e 3823 fdbe
00000010: a26f abbe 687e 49b6 7a3f cabd 004b d33e
