models/regression/neural_networks/2023-02-16_13:10:30/model.pt (torch, 12475 bytes, 7 tensors)

layers.0.weight f4 [32, 11]
0	0x3e83c360	0.25734997
1	0xbd9d2463	-0.07672956
2	0x3e04735b	0.1293463
3	0x3e13f5de	0.1444926
4	0x3e9031a1	0.28162864
5	0x3d07e17a	0.033174016
6	0x3e5698e7	0.20956765
7	0xbd9ca054	-0.07647768
8	0xbe3b68a0	-0.1830163
9	0xbce585c1	-0.02801788
10	0x3cdbc9af	0.026829569
11	0x3e4f2ad3	0.2023118
12	0xbc819c9a	-0.015821744
13	0x3daf6f39	0.08566136
14	0xbd2f45bb	-0.04279111
15	0x3d3ef534	0.046620563
16	0x3c038851	0.008028106
17	0x3d5a7329	0.05333248
18	0x3d2dc8a4	0.042427674
19	0xbd7e4a09	-0.062082324
20	0x3d84e1f8	0.064884126
21	0x3e0cb93c	0.13742536
22	0x3e293ff2	0.165283
23	0xbd5434b7	-0.051808085
24	0x3dd73949	0.10508973
25	0x3c8b449d	0.01700049
26	0x3dceb0a3	0.100922845
27	0xbbcac452	-0.006187954
28	0x3e0a2682	0.13491252
29	0xbcbadfd8	-0.022811815
30	0xbd7326e1	-0.05936325
31	0xbdf7308b	-0.12069806
32	0x3da7705f	0.0817573
33	0x3d506743	0.050879728
34	0xbd1d5bb9	-0.03841755
35	0x3d4dc16d	0.050233293
36	0x3d55e9ff	0.05222511
37	0x3d6327bd	0.05545782
38	0x3bff05d8	0.007782679
39	0x3ca5e973	0.020252919
40	0xbc9106c9	-0.01770343
41	0x3a238f6c	0.0006239328
42	0x3da2496e	0.07924162
43	0xbbc4de30	-0.006007932
44	0x3e18c188	0.14917576
45	0xbbe6d8e0	-0.0070448965
46	0x3d62af1b	0.055342775
47	0x3ad29208	0.0016065249
48	0x3dc47bdd	0.095939375
49	0x3b4f5c32	0.0031640646
50	0x3ddbf31b	0.10739728
51	0xbbfa570f	-0.0076397727
52	0xbd371976	-0.044702016
53	0xbd8a460e	-0.06751643
54	0x3d304354	0.04303296
55	0x3a54226e	0.00080922886
56	0x3ad4e7dc	0.0016243416
57	0x3a4f0b5c	0.0007898116
58	0x3b0b3e43	0.0021246828
59	0x3abbf6c0	0.0014340505
60	0x3ae5de06	0.0017537482
61	0x398c2fb2	0.00026738417
62	0x3a450243	0.00075152906
63	0x37a36280	1.9476982e-05
64	0x3b30090f	0.0026860868
65	0x3aa49053	0.0012555219
66	0xb80aa14c	-3.3051983e-05
67	0xb7657393	-1.3676373e-05
68	0xb78cfc37	-1.6806747e-05
69	0xb7436d3d	-1.164834e-05
70	0x34fa2cc8	4.659871e-07
71	0x378d3235	1.683189e-05
72	0xb7af9bd6	-2.0934192e-05
73	0x373c1de4	1.1212633e-05
74	0x3847abee	4.760542e-05
75	0x378fffb6	1.7166003e-05
76	0xb8c88a33	-9.562485e-05
77	0x32d07be2	2.4270722e-08
78	0xb30dd7cb	-3.3025383e-08
79	0x3313aa76	3.4381138e-08
80	0xb2b97c9a	-2.1593497e-08
81	0xb3a3c153	-7.6254445e-08
82	0xb302ddc2	-3.046967e-08
83	0xb3968c0a	-7.010392e-08
84	0x336468dc	5.3180756e-08
85	0xb34caf67	-4.765698e-08
86	0xb3b4639a	-8.4000206e-08
87	0x32d59972	2.4866242e-08
88	0xb6ad08c6	-5.156823e-06
89	0xb564ed3d	-8.5281846e-07
90	0xb6b3f230	-5.36281e-06
91	0xb62e4db2	-2.5973245e-06
92	0xb703cf97	-7.856542e-06
93	0xb7663714	-1.3721892e-05
94	0xb725c32f	-9.880211e-06
95	0xb7817523	-1.5432544e-05
96	0xb7152016	-8.888563e-06
97	0x3705867c	7.95873e-06
98	0xb6cb3bfe	-6.0568555e-06
99	0xb784d8f7	-1.5836658e-05
100	0xb7859dcf	-1.592832e-05
101	0xb792eb91	-1.751425e-05
102	0x35797e8e	9.294389e-07
103	0xb81f6992	-3.8006874e-05
104	0xb7e82124	-2.7671987e-05
105	0xb7fb10aa	-2.9929291e-05
106	0xb814ede7	-3.5507514e-05
107	0xb7426e04	-1.1588916e-05
108	0x36d24666	6.266683e-06
109	0x377d4187	1.5095232e-05
110	0xbc10b4dc	-0.008832183
111	0xbccbccbc	-0.024877898
112	0xbd037887	-0.032097366
113	0xbc6288c5	-0.013826554
114	0x3ca6037f	0.020265339
115	0xbbe46c46	-0.006970915
116	0xbcbc1517	-0.022959275
117	0xbb069677	-0.0020536461
118	0x3d7e75b2	0.06212396
119	0xbcca1fbb	-0.024673333
120	0xbc685b26	-0.014181888
121	0xbb142bc6	-0.0022609099
122	0xbc940bfc	-0.01807212
123	0xbcd9b3c7	-0.026574982
124	0xbc057d90	-0.008147612
125	0x3c8e4720	0.0173679
126	0xbbd73c11	-0.00656844
127	0xbc2acc19	-0.010424637
128	0x3b0ee37a	0.0021803067
129	0x3d61d513	0.055134844
130	0xbc69edea	-0.014277915
131	0xbc114773	-0.0088671325
132	0xbb553694	-0.0032533752
133	0xbba786c1	-0.0051124995
134	0xbb9180eb	-0.004440417
135	0xbaa30156	-0.0012436311
136	0xbbad2212	-0.0052836025
137	0xbbb19f4c	-0.005420601
138	0xbc00a820	-0.007852584
139	0x3bd07290	0.006361313
140	0x3a6869ea	0.000886588
141	0x3b2dc323	0.0026514016
142	0x38c5b670	9.427674e-05
143	0x38921be7	6.96702e-05
144	0x39d0d546	0.00039831753
145	0x389bffd8	7.4386306e-05
146	0xb70d76e2	-8.4319345e-06
147	0xba3fb410	-0.0007312903
148	0x399d0541	0.00029949288
149	0xb92d4340	-0.00016523618
150	0xb946df42	-0.00018965921
151	0xba75ee4f	-0.0009381519
152	0xb83210dc	-4.245421e-05
153	0x3973fc79	0.0002326834
154	0x34c7fe50	3.7251675e-07
155	0x347fc840	2.3821576e-07
156	0x3426942f	1.5513864e-07
157	0xb60d4d24	-2.105554e-06
158	0xb5c60075	-1.4752283e-06
159	0xb4680b1a	-2.1610722e-07
160	0xb5b4c0be	-1.346714e-06
161	0xb3e6c8c2	-1.0746727e-07
162	0xb5ef2e4c	-1.7820362e-06
163	0xb4b153bd	-3.3029747e-07
164	0x347e1e5e	2.3666641e-07
165	0xbb3ca96d	-0.002878751
166	0xbb0b552c	-0.0021260483
167	0xba8833ef	-0.0010391454
168	0xb9f33678	-0.00046389154
169	0x3b750dae	0.0037392187
170	0xba6f88bb	-0.0009137501
171	0xbaef306f	-0.0018248687
172	0x3b244831	0.0025067443
173	0x3c1e5fe3	0.009666416
174	0xb9e97634	-0.0004452929
175	0x3ace6909	0.0015747856
176	0x3e6c3685	0.23067673
177	0xbcb862ea	-0.022508103
178	0x3e2a9b1d	0.16660734
179	0x3d530959	0.051522586
180	0x3e0fec62	0.14055017
181	0xbd5395db	-0.051656585
182	0x3d28854c	0.041142747
183	0xbe11f5ea	-0.14253965
184	0xbe0a3e83	-0.13500409
185	0xbd31bbb6	-0.043391906
186	0x3d8c38b0	0.0684675
187	0x3e5b9df4	0.21446973
188	0x3c8c7dfc	0.017149918
189	0x3e10af3b	0.14129345
190	0x3b29576c	0.002583946
191	0x3e1cb21e	0.15302321
192	0xbab76413	-0.0013991616
193	0x3e32de45	0.17467602
194	0xbc33d107	-0.010975129
195	0xbdb5e3a7	-0.08881312
196	0xbe1472fc	-0.14496988
197	0x3dc8b596	0.0980026
198	0xb8979607	-7.228186e-05
199	0xb88de73e	-6.766476e-05
200	0xb8d763ea	-0.00010270609
201	0xb88bd545	-6.667761e-05
202	0xb9563eb0	-0.00020431983
203	0xb86fe56f	-5.7195717e-05
204	0xb914f1b6	-0.00014204424
205	0xb7e6eee6	-2.7529382e-05
206	0xb91363ab	-0.00014056142
207	0x3903110c	0.00012499484
208	0x37d758ea	2.5671401e-05
209	0xb97f674a	-0.00024357173
210	0xba5ac9ac	-0.00083460915
211	0xba01a544	-0.0004945586
212	0x391a05f3	0.00014688801
213	0x3942da69	0.00018582646
214	0x3999c523	0.00029329312
215	0x39120745	0.00013926353
216	0x37df28d4	2.6602684e-05
217	0x3a2f664a	0.00066909625
218	0x386f80ce	5.7102e-05
219	0xb9b2602f	-0.00034022468
220	0xbd65b015	-0.056076128
221	0x3c8f6e42	0.01750863
222	0x3c8c9619	0.017161416
223	0xbd5fc6b2	-0.05463285
224	0xbd2b2bfd	-0.041789997
225	0xbdc97dd2	-0.098384514
226	0xbe070a38	-0.13187492
227	0x3d941b84	0.07231811
228	0x3e91f389	0.28506115
229	0xbe166441	-0.14686681
230	0xbc9bc288	-0.019013658
231	0x39d8f2f8	0.00041379756
232	0xbac5d1d7	-0.0015092444
233	0x38d3d9c4	0.00010101826
234	0x3913e934	0.00014105887
235	0xba001d3e	-0.000488717
236	0xba57bb89	-0.0008229544
237	0xb9805a72	-0.0002448145
238	0xb9a087ca	-0.0003061875
239	0xb921ca64	-0.00015429553
240	0x3a3445eb	0.00068768737
241	0xb9f17563	-0.00046054562
242	0x3d44508a	0.04792837
243	0x3c5d8da5	0.01352254
244	0x3d456253	0.048189472
245	0xbc8b17e1	-0.01697916
246	0xbd4b1435	-0.049579818
247	0xbce73d6b	-0.028227529
248	0xbd6be0c0	-0.057587385
249	0x3cd3cc18	0.025854155
250	0x3c59d1ca	0.0132946465
251	0xbae0eb44	-0.0017159958
252	0x3d2aea10	0.041727126
253	0xb6a11686	-4.800796e-06
254	0x378ca245	1.6764863e-05
255	0xb736ce56	-1.0896087e-05

layers.0.bias f4 [32]
0	0xbd08e265	-0.03341903
1	0x3ce12669	0.027484136
2	0xbd8570d5	-0.065156616
3	0xbd27671d	-0.04086982
4	0xbd1eaf84	-0.038741603
5	0xbc066e5a	-0.008205021
6	0xb8dd7974	-0.000105607236
7	0xb4c6a40a	-3.6999728e-07
8	0xb7a5d773	-1.976986e-05
9	0xb8cbb969	-9.71433e-05
10	0x3cf013b4	0.02930627
11	0x3cc0e407	0.023546232
12	0xbafd9724	-0.0019347412
13	0xbad32cb4	-0.0016111345
14	0xb61d7234	-2.3461298e-06
15	0x3b26dee0	0.0025462434
16	0x3cd09bc2	0.025464896
17	0xbd4d8880	-0.050179005
18	0xb9a42b15	-0.00031312616
19	0xba3c9ae6	-0.00071947125
20	0x3df42dc8	0.119227946
21	0xba838df6	-0.0010036814
22	0xbd86e4c7	-0.065866046
23	0xb8bee3d3	-9.1023416e-05
24	0x3e02e3ad	0.12782164
25	0xbb7f35a1	-0.0038941877
26	0xb5a18cc2	-1.2036401e-06
27	0xbc873ad6	-0.016507547
28	0xbd1b0268	-0.03784409
29	0xb6cf0abd	-6.170331e-06
30	0xba3d2c35	-0.0007216365
31	0xbd5b0a82	-0.053476818

layers.2.weight f4 [32, 32]
0	0x3e0282df	0.12745236
1	0x3d89d0d2	0.067292824
2	0x3d8507bb	0.06495615
3	0x3c22b1e3	0.009930107
4	0x3d2f60db	0.042816978
5	0xba323e1e	-0.00067994173
6	0xb69f2bfa	-4.743689e-06
7	0xb3220239	-3.7720586e-08
8	0x36a06a5e	4.7807544e-06
9	0xb6ee7325	-7.1063573e-06
10	0xbcd5caa7	-0.026097609
11	0xbc9f1b7c	-0.019422285
12	0x3a716e74	0.0009209879
13	0xba9f5b92	-0.0012158027
14	0xb4970ac7	-2.8133783e-07
15	0xbb898bb9	-0.0041975644
16	0x3db5f937	0.088854246
17	0x3dbe6569	0.09296686
18	0xb8f5313a	-0.000116916795
19	0xb926b312	-0.00015897703
20	0xbdb366f5	-0.08759872
21	0xb91dcad6	-0.00015048249
22	0x3bb61785	0.005557003
23	0xb7bfba0f	-2.2855615e-05
24	0x3daef70d	0.08543215
25	0x3a17020a	0.0005760497
26	0x35621eae	8.4236206e-07
27	0x3c847664	0.016169734
28	0x3c4cba65	0.012495612
29	0xb6aaddd8	-5.092221e-06
30	0xb8a57e78	-7.89137e-05
31	0x3d59d7ec	0.053184435
32	0x3de316be	0.11088322
33	0x3d61214e	0.054963402
34	0x3d5f817c	0.054566845
35	0x3bc0c595	0.0058829286
36	0x3d0f6eee	0.0350179
37	0xbad74cd2	-0.0016426092
38	0xb698945f	-4.5472257e-06
39	0xb331aaa7	-4.136623e-08
40	0x368a053a	4.113329e-06
41	0xb710b292	-8.6246455e-06
42	0xbcbf3ad7	-0.023343487
43	0xbc8dff0c	-0.01733353
44	0x3b882b5a	0.0041555585
45	0xbaa34a58	-0.0012458069
46	0xb497ca71	-2.8273237e-07
47	0xbb74ba24	-0.0037342394
48	0x3d9a6d76	0.07540409
49	0x3da1b3b7	0.07895606
50	0xb8e7412a	-0.00011027076
51	0x3886e708	6.432651e-05
52	0xbd9dc17e	-0.07702921
53	0xb9046e82	-0.00012629668
54	0xb8b57940	-8.653337e-05
55	0xb7bba952	-2.2370983e-05
56	0x3d998ee2	0.07497956
57	0x39d16956	0.00039942068
58	0x354d7007	7.653147e-07
59	0x3c40e45c	0.011773195
60	0x3c01623b	0.007896955
61	0x32c6d6c0	2.314789e-08
62	0xb8a9cc0c	-8.096555e-05
63	0x3d362cde	0.044476382
64	0xb73774c4	-1.0934837e-05
65	0xb69366f2	-4.392926e-06
66	0xb701aa45	-7.728643e-06
67	0x371c2ef7	9.309259e-06
68	0xb6e9b7bd	-6.965331e-06
69	0xb2cfc780	-2.4188694e-08
70	0xb0f64576	-1.7918598e-09
71	0x2db86f00	2.0967672e-11
72	0xaf2a1ad9	-1.5470948e-10
73	0xb0e59cbf	-1.6706493e-09
74	0xb615a602	-2.229936e-06
75	0x36b89505	5.5009755e-06
76	0xb3f5f084	-1.1452451e-07
77	0xb3ba74fe	-8.682581e-08
78	0x2f459f72	1.7973692e-10
79	0xb5bb95c9	-1.3976179e-06
80	0x3617b648	2.2606855e-06
81	0xb5cf8e46	-1.5464109e-06
82	0xb23520e7	-1.0543068e-08
83	0xb2cc3a54	-2.377525e-08
84	0xb6ef00a6	-7.1228305e-06
85	0xb21d0c32	-9.141376e-09
86	0x36c3706b	5.82454e-06
87	0xb159c770	-3.1691023e-09
88	0xb73ecef0	-1.1373064e-05
89	0x33205e78	3.7338822e-08
90	0xae4bfefa	-4.638332e-11
91	0xb69d5f2b	-4.6900436e-06
92	0xb69c06e0	-4.6499626e-06
93	0xae28e7bc	-3.84046e-11
94	0xb27dbe8f	-1.4769866e-08
95	0xb638de9e	-2.7547717e-06
96	0x3d374384	0.044742122
97	0x3c89ba5f	0.016812501
98	0x3c8461a5	0.016159842
99	0xbb5fe93f	-0.0034166125
100	0x3be6a303	0.0070384755
101	0x38a7bdc2	7.998526e-05
102	0xb653e196	-3.1572758e-06
103	0xb39da243	-7.3403974e-08
104	0x35fc6200	1.8803985e-06
105	0x368e8fa4	4.2486517e-06
106	0xbbeb73bb	-0.007185427
107	0xbbb53104	-0.0055295248
108	0x3b254f02	0.0025224094
109	0xb9f717f8	-0.0004712937
110	0xb46f7875	-2.2302432e-07
111	0xbabfa5ee	-0.0014621594
112	0x3ce0685d	0.027393514
113	0x3ceec130	0.029144853
114	0xb8246abf	-3.9200062e-05
115	0xb894b864	-7.0915354e-05
116	0xbce39bfa	-0.027784336
117	0xb67d4790	-3.7741593e-06
118	0xbcb22326	-0.021745276
119	0xb6c32ec4	-5.816897e-06
120	0x3cd6e0f9	0.026230322
121	0xb8e4c521	-0.00010908605
122	0x34bed42e	3.554464e-07
123	0xba5c7e75	-0.00084111776
124	0xbb7db1cc	-0.0038710712
125	0x35832dbb	9.77357e-07
126	0x390bd4a8	0.00013335294
127	0x3c558613	0.013032454
128	0xb3c286de	-9.058361e-08
129	0xb45e124f	-2.0682022e-07
130	0xb40a866f	-1.2901158e-07
131	0x325d2d20	1.2874153e-08
132	0xb42a2bfe	-1.5848488e-07
133	0xb1713298	-3.5098875e-09
134	0xaf136f58	-1.340913e-10
135	0xac8a8c80	-3.9377945e-12
136	0xad6b6289	-1.3380083e-11
137	0xafcfdd02	-3.7810116e-10
138	0x34bbd387	3.498537e-07
139	0x33a303da	7.5909796e-08
140	0x31777a20	3.601265e-09
141	0xae16b8b4	-3.42701e-11
142	0xadb27a0a	-2.0290453e-11
143	0x32d36ec0	2.4613996e-08
144	0xb43ec9c4	-1.7768531e-07
145	0xb41e74cb	-1.4757386e-07
146	0xafb6779f	-3.3190603e-10
147	0xb01e4ea4	-5.759182e-10
148	0xb37733c4	-5.755625e-08
149	0xb04a733b	-7.3650924e-10
150	0xb37c892a	-5.8798072e-08
151	0x30d6df07	1.5633937e-09
152	0xb561a342	-8.4056603e-07
153	0x3006df72	4.906645e-10
154	0xacd60ce4	-6.083677e-12
155	0xb45ddc23	-2.0662314e-07
156	0xb3188d08	-3.5518525e-08
157	0xad2b5b3f	-9.740485e-12
158	0x309a63a7	1.1233298e-09
159	0xb35c9c04	-5.1364637e-08
160	0x3a371ffa	0.0006985661
161	0x39203834	0.00015279726
162	0xba4bb38d	-0.00077705906
163	0x38b7ea28	8.769735e-05
164	0xbadd480d	-0.0016882435
165	0xb7261a70	-9.9005265e-06
166	0xb4888f25	-2.5436125e-07
167	0xafb6505e	-3.3162711e-10
168	0x333b0ce2	4.3551047e-08
169	0x332f226c	4.077667e-08
170	0x39e827a6	0.0004428003
171	0x39b81b88	0.00035115727
172	0x3b002aaa	0.001955668
173	0xb74de8c6	-1.2273149e-05
174	0xb2bc6a81	-2.1934513e-08
175	0x38345751	4.2996664e-05
176	0x3a00332a	0.00048904365
177	0xba85551e	-0.0010172462
178	0x36165770	2.2402637e-06
179	0x3871298a	5.7497564e-05
180	0x3aab90a8	0.0013089376
181	0x36cf9c7a	6.187297e-06
182	0xba24c139	-0.0006284896
183	0x345b051b	2.0397822e-07
184	0x3ab39ea4	0.0013703895
185	0xb641adf3	-2.8860493e-06
186	0x328fb65d	1.673032e-08
187	0xba3b44e9	-0.00071437523
188	0xb98edc0c	-0.00027248298
189	0xb0ed5838	-1.7269093e-09
190	0x37a0ded1	1.9177243e-05
191	0x3a16c814	0.000575186
192	0x35fba9f2	1.8750418e-06
193	0x35256ead	6.1628344e-07
194	0x34cf89af	3.8656933e-07
195	0x34357211	1.6898436e-07
196	0x34ba70b0	3.472719e-07
197	0xb2a5ac80	-1.9286972e-08
198	0xae79710a	-5.6716444e-11
199	0x2cdc72b3	6.2655102e-12
200	0xae2494d7	-3.742148e-11
201	0x31334b8b	2.609087e-09
202	0x3480505a	2.390032e-07
203	0x347c1528	2.3477025e-07
204	0x333d20c2	4.4034785e-08
205	0xb1c738a3	-5.798101e-09
206	0xaee70ccb	-1.0506936e-10
207	0x33602230	5.2185158e-08
208	0x34f26018	4.514593e-07
209	0x35222b10	6.0412367e-07
210	0xb0cf7e8f	-1.5097202e-09
211	0x3095e3fd	1.0905975e-09
212	0x354a27f1	7.5308986e-07
213	0x30ab1683	1.2448286e-09
214	0x33c07e0c	8.9636245e-08
215	0xb02b4d71	-6.231949e-10
216	0x3528b97e	6.2854804e-07
217	0x31310ec3	2.576528e-09
218	0x2c939ca5	4.1953823e-12
219	0x348bed1b	2.6063285e-07
220	0x346abaa4	2.1860848e-07
221	0xae116ef5	-3.3067733e-11
222	0x30d96279	1.5816816e-09
223	0x35a49886	1.2263342e-06
224	0xb033a657	-6.5356204e-10
225	0xb00621ed	-4.879713e-10
226	0xaed24c3c	-9.563236e-11
227	0x2faba699	3.1223094e-10
228	0x3045b2ce	7.192228e-10
229	0x2da32d61	1.8551107e-11
230	0x2d9adcee	1.7605885e-11
231	0xad9ab070	-1.7586127e-11
232	0x2d6c9aca	1.3449417e-11
233	0xadb15c44	-2.0163544e-11
234	0x3004cf08	4.831553e-10
235	0x2f8b553c	2.5344515e-10
236	0x2c722352	3.4409875e-12
237	0x2e3a8c93	4.241636e-11
238	0x2ad63f38	3.8057903e-13
239	0xae46cfac	-4.5204437e-11
240	0x2fda97ab	3.9761736e-10
241	0x302c8ec6	6.277613e-10
242	0x2e187c05	3.467095e-11
243	0xad287bdb	-9.577196e-12
244	0xb0f41fc8	-1.7762369e-09
245	0x2dc8e204	2.2837739e-11
246	0x2ed92458	9.8744735e-11
247	0xad55e5b1	-1.215865e-11
248	0xb0822842	-9.470187e-10
249	0x2d579cdc	1.2256165e-11
250	0x2c71c64f	3.4358243e-12
251	0xaf4dea0c	-1.8727792e-10
252	0x30093dc8	4.9928106e-10
253	0x29b7ae20	8.1570384e-14
254	0x2d08e92a	7.782478e-12
255	0xb0585646	-7.8702944e-10

layers.2.bias f4 [32]
0	0x3ce101e0	0.027466714
1	0x3cad1172	0.021126483
2	0xb81c5d6e	-3.728031e-05
3	0x3ac4f0ce	0.0015025379
4	0x35510816	7.7870334e-07
5	0x3bee82fc	0.007278798
6	0x366df11c	3.5456096e-06
7	0xb0eb49f2	-1.7119517e-09
8	0xb94d0cd1	-0.00019555098
9	0x3a1b7bb0	0.00059312116
10	0x3d81572e	0.06315456
11	0xb5087fac	-5.0849735e-07
12	0xb5b553d8	-1.3509953e-06
13	0xbb27b0d3	-0.0025587573
14	0x3d4e0118	0.05029401
15	0xb118994b	-2.2206048e-09
16	0x388eb36c	6.8045076e-05
17	0xbaea9f14	-0.0017900192
18	0x38eb023c	0.000112060894
19	0x34d8a698	4.0354348e-07
20	0xb33e1911	-4.426062e-08
21	0x3d813221	0.063083895
22	0xbbec0992	-0.0072032893
23	0x3cb08e66	0.021552276
24	0xba627956	-0.0008639296
25	0x35c27524	1.4488219e-06
26	0xb629d6cb	-2.5307988e-06
27	0xb49b80b6	-2.896465e-07
28	0x3b919341	0.004442603
29	0x3d94b883	0.07261755
30	0xbd099792	-0.033591814
31	0x3a9d20c1	0.0011987911

layers.4.weight f4 [32, 32]
0	0x3dd2cd35	0.102930464
1	0x3db2c462	0.08728863
2	0xb734aa64	-1.0768508e-05
3	0x3cf8896e	0.03033897
4	0x35e1caf3	1.6822872e-06
5	0x3bf2d70a	0.0074108886
6	0x35929a88	1.0922822e-06
7	0xb0b56be6	-1.320015e-09
8	0x3906f7f0	0.000128716
9	0x3988d004	0.00026094925
10	0x3e46ed63	0.19426493
11	0x34d3e876	3.947095e-07
12	0xb5ade958	-1.2957416e-06
13	0x3b125dea	0.002233381
14	0x3e1910ed	0.14947863
15	0xb01a8904	-5.6219585e-10
16	0x390b0f78	0.00013261836
17	0x3a79223f	0.0009503699
18	0x3828ca31	4.0242627e-05
19	0x33cd99cc	9.574032e-08
20	0xb150ddf8	-3.0394158e-09
21	0x3e2f1843	0.17099099
22	0xbaf67915	-0.0018804396
23	0x3db3e661	0.08784176
24	0x39f0f870	0.00045961468
25	0xb6216cef	-2.4054277e-06
26	0xb56a8d80	-8.73777e-07
27	0xb3071091	-3.1447204e-08
28	0x3cc0ebfa	0.023550022
29	0x3e57549b	0.21028368
30	0xbbe50409	-0.0069890064
31	0xb9af1dca	-0.00033400796
32	0xba699492	-0.00089103833
33	0xba628c57	-0.0008642128
34	0x33c5e5c8	9.215324e-08
35	0xb9e7acf6	-0.0004418862
36	0x2ffaba78	4.560723e-10
37	0xb5cb62c1	-1.515342e-06
38	0x321052fe	8.400773e-09
39	0x2d225896	9.228304e-12
40	0x35e955ff	1.7384881e-06
41	0x3616a6e8	2.2448894e-06
42	0xba6e922a	-0.00091007596
43	0x321f0b59	9.257598e-09
44	0xb294ca20	-1.7321383e-08
45	0xb8912822	-6.921614e-05
46	0xba8015ac	-0.0009772084
47	0xad789040	-1.4129198e-11
48	0x335d0032	5.145575e-08
49	0xb755487e	-1.2712668e-05
50	0x3528cda7	6.288414e-07
51	0x3001d5ee	4.723394e-10
52	0x2f89f362	2.509309e-10
53	0xba59b673	-0.000830508
54	0xb6e32b5e	-6.770176e-06
55	0xba5e8624	-0.00084886164
56	0xb55074b1	-7.7655847e-07
57	0x320bf214	8.145907e-09
58	0x33f64820	1.1468387e-07
59	0x2fccfd2a	3.7287268e-10
60	0xb7b5fd88	-2.1694941e-05
61	0xba68e0f7	-0.000888362
62	0xb8b0fafe	-8.439085e-05
63	0x3713a22a	8.7996395e-06
64	0x32cb23a9	2.3648527e-08
65	0x326a42d6	1.3635789e-08
66	0xac528c06	-2.9920524e-12
67	0x318d6ddc	4.1161297e-09
68	0xad2a7541	-9.689417e-12
69	0x2e2bfa40	3.9103165e-11
70	0xad334f17	-1.01925334e-11
71	0xaae247fc	-4.0195614e-13
72	0xafeb9dae	-4.285829e-10
73	0x2ef1eade	1.1001132e-10
74	0x331297f5	3.4131478e-08
75	0xaea5bf21	-7.5372826e-11
76	0xaf68f346	-2.1186705e-10
77	0x30a30b1c	1.1862968e-09
78	0x338c494e	6.532592e-08
79	0xad698f9d	-1.3276405e-11
80	0x2d0af277	7.89823e-12
81	0xb030f212	-6.437243e-10
82	0xac2feb20	-2.4999516e-12
83	0xac3a43fc	-2.6469929e-12
84	0xad243682	-9.334424e-12
85	0x33401da0	4.4730427e-08
86	0x2b76b670	8.764994e-13
87	0x3339623c	4.3163013e-08
88	0x2db045db	2.0039905e-11
89	0xaeac8ce6	-7.846683e-11
90	0x2f011a55	1.1741837e-10
91	0x2cabc64b	4.8821273e-12
92	0x30cbbc68	1.4823742e-09
93	0x33392a9d	4.3112426e-08
94	0x30659faa	8.353661e-10
95	0x2f45b0c8	1.7979851e-10
96	0xbd047820	-0.032341123
97	0xbce3c5c6	-0.027804267
98	0xb6c9f3c2	-6.018644e-06
99	0xbc24769a	-0.010038042
100	0xb3a5b00e	-7.7154354e-08
101	0xbb5512c4	-0.0032512406
102	0x330cd0aa	3.278607e-08
103	0x30ec292d	1.7182963e-09
104	0x39661050	0.00021940586
105	0x397dc1e9	0.00024200197
106	0xbd57d228	-0.052690655
107	0xb4954f5c	-2.7811154e-07
108	0x35d931f9	1.6182304e-06
109	0xbacfd14e	-0.0015855224
110	0xbd3bbc80	-0.045834064
111	0xaf9d3456	-2.859532e-10
112	0xb705bdb4	-7.9715865e-06
113	0xba469aa2	-0.00075761427
114	0x38814c59	6.16542e-05
115	0xb2eaea00	-2.7347596e-08
116	0xb244944f	-1.1442423e-08
117	0xbd5dc236	-0.054140292
118	0xb9b17fa5	-0.00033855173
119	0xbce7174d	-0.028209353
120	0xb8857a63	-6.3647305e-05
121	0x3616f83d	2.2496235e-06
122	0x35bb9128	1.3974832e-06
123	0xb204930b	-7.716845e-09
124	0xbc4b6c78	-0.012415998
125	0xbd7adb7b	-0.06124447
126	0xbc6a13bd	-0.014286933
127	0xbb3dd090	-0.0028963424
128	0xb43e5904	-1.7727513e-07
129	0xb43b98f8	-1.7471382e-07
130	0x2d929fc4	1.6669228e-11
131	0x33c58f20	9.199562e-08
132	0x2cc03565	5.462896e-12
133	0x2f180d97	1.3829148e-10
134	0x2daf4f6c	1.9930467e-11
135	0x2d06af56	7.6559505e-12
136	0x32067459	7.826281e-09
137	0x2fbb3920	3.4055692e-10
138	0xb4d7b8bd	-4.0181285e-07
139	0xaed3cdbc	-9.631715e-11
140	0xaffa0d70	-4.5484283e-10
141	0x32fb4622	2.9252138e-08
142	0xb4b08d4f	-3.288537e-07
143	0x2b48737a	7.121453e-13
144	0xaef0c416	-1.0948768e-10
145	0x31913848	4.226454e-09
146	0xafd7b449	-3.9236372e-10
147	0x2c871ba6	3.8400004e-12
148	0x2d16b8ac	8.567518e-12
149	0xb4d8cefa	-4.038373e-07
150	0x30045c37	4.8152365e-10
151	0xb4256434	-1.5403276e-07
152	0x2d209260	9.127449e-12
153	0x30176753	5.508031e-10
154	0x30312464	6.444394e-10
155	0xac871d01	-3.840151e-12
156	0x2ddbf370	2.5005525e-11
157	0xb4f71a8c	-4.602665e-07
158	0x31987bf9	4.4378763e-09
159	0x31c61331	5.7647402e-09
160	0xbcef68ed	-0.029224837
161	0xbccb021c	-0.02478128
162	0x3624fe06	2.4585765e-06
163	0xbc0ca010	-0.008583084
164	0xb473e976	-2.2716071e-07
165	0xba8f6f4e	-0.0010943206
166	0xb4fa8803	-4.666509e-07
167	0x3097f87d	1.1057321e-09
168	0xb920b2b1	-0.00015325357
169	0x376ecb70	1.4233272e-05
170	0xbd482273	-0.04886098
171	0xb4501972	-1.9380767e-07
172	0x35dd71d7	1.6498915e-06
173	0xba1f6e0d	-0.00060817675
174	0xbd2b905b	-0.041885715
175	0xaee3b8da	-1.0355601e-10
176	0x37c21196	2.3134791e-05
177	0xb9f4ae98	-0.0004666939
178	0x382452b2	3.9177663e-05
179	0xb3c401dc	-9.1272994e-08
180	0xb211fe13	-8.497881e-09
181	0xbd5a4af4	-0.053294137
182	0xb9e192ea	-0.00043024804
183	0xbcceb123	-0.02523095
184	0xb888c8d6	-6.522394e-05
185	0x362f38cb	2.611009e-06
186	0x35eb4d12	1.7531295e-06
187	0x32288a99	9.8104005e-09
188	0xbcacd2b2	-0.021096561
189	0xbd6479a8	-0.055780083
190	0x3a7ef29e	0.0009725484
191	0xb95c544a	-0.00021012235
192	0x322d45c2	1.0085786e-08
193	0xb29460b3	-1.7273441e-08
194	0x2b929f80	1.0418194e-12
195	0x31b402d2	5.23901e-09
196	0x2c1d9c8b	2.239794e-12
197	0x2f789a0c	2.2610197e-10
198	0xac363c8e	-2.589737e-12
199	0xab9290c8	-1.0414109e-12
200	0xb1595544	-3.1626124e-09
201	0xaf1e14f7	-1.4377464e-10
202	0x32e4f3c8	2.6653552e-08
203	0x2d7e040c	1.4439127e-11
204	0xaf9533d1	-2.713976e-10
205	0xaf825784	-2.3709046e-10
206	0xb224d145	-9.593639e-09
207	0x2c744856	3.471464e-12
208	0x2db3bc72	2.043363e-11
209	0xb01f8c26	-5.8043026e-10
210	0x2cab0040	4.86014e-12
211	0xac8bccb3	-3.973344e-12
212	0xad33e4a8	-1.0225744e-11
213	0x32bbabbe	2.1847764e-08
214	0xae76ecf8	-5.6144395e-11
215	0xb1233820	-2.3751525e-09
216	0xae20a55a	-3.652665e-11
217	0x2e9a427e	7.0149206e-11
218	0xae822a5e	-5.9192415e-11
219	0xac19f1b2	-2.1876776e-12
220	0xb133b71e	-2.6152018e-09
221	0x32fa217a	2.9119054e-08
222	0xb0fa9e60	-1.8234907e-09
223	0xae56e9b4	-4.8865537e-11
224	0xb7bb4fcc	-2.2329295e-05
225	0xb78a66cb	-1.6498749e-05
226	0x30ee3a0e	1.7333279e-09
227	0x379b7a94	1.853452e-05
228	0xae163fa0	-3.416256e-11
229	0xb2bf5651	-2.2274579e-08
230	0xaca3ffb4	-4.6611274e-12
231	0x2961fb60	5.017807e-14
232	0xb1061063	-1.9508881e-09
233	0xb140461c	-2.797953e-09
234	0xb831e4b5	-4.241309e-05
235	0xad747f38	-1.38980424e-11
236	0xb04a3c04	-7.357246e-10
237	0xb59aaf58	-1.1524926e-06
238	0x38940146	7.057427e-05
239	0xac3e937a	-2.708249e-12
240	0xaf5b1475	-1.9925202e-10
241	0xb4860f86	-2.497074e-07
242	0x31332fc7	2.6075087e-09
243	0x2c5d9708	3.1489828e-12
244	0x2d0ee7a1	8.123197e-12
245	0xb81e31ac	-3.7716396e-05
246	0xb55671cf	-7.9886826e-07
247	0xb761d108	-1.3459714e-05
248	0x32d18656	2.4391891e-08
249	0xb09cf7f1	-1.1420963e-09
250	0x306dca36	8.6507457e-10
251	0xac1a11ad	-2.1894528e-12
252	0x35034dfc	4.8914785e-07
253	0xb7db9d1e	-2.6179998e-05
254	0xb61ec5f1	-2.3659052e-06
255	0xb28e0b5b	-1.653614e-08

layers.4.bias f4 [32]
0	0xbc1ac743	-0.009446922
1	0xbb3a832b	-0.002845953
2	0x32a86688	1.96044e-08
3	0x3e589b7b	0.21153061
4	0xb544b485	-7.327838e-07
5	0x3e5ce22b	0.21570651
6	0x339713a9	7.0350616e-08
7	0xb8a8bc3e	-8.045927e-05
8	0xbc101ea4	-0.008796368
9	0xbc7ccd83	-0.015429857
10	0xbc3f33c6	-0.011670059
11	0x3ddc2b7f	0.10750484
12	0x3e464200	0.19361115
13	0xbc2b1506	-0.010442024
14	0xbc19f1ec	-0.009396058
15	0x3e3fb812	0.18722561
16	0xb5b25626	-1.3287106e-06
17	0xbc24342c	-0.010022204
18	0xbc19c336	-0.009384921
19	0xbc398c2f	-0.011324926
20	0xb0bef5df	-1.38942e-09
21	0x3ddca9d8	0.107745826
22	0xbc76327d	-0.015026686
23	0xbb5929e7	-0.0033136548
24	0xbc7e5a69	-0.015524485
25	0xb640db68	-2.873794e-06
26	0x3d0647c9	0.032783303
27	0xb2b70367	-2.1305551e-08
28	0x36e5138a	6.8270065e-06
29	0xb35712f6	-5.0075833e-08
30	0xbbff59b1	-0.0077926745
31	0xba8569a8	-0.0010178583

layers.6.weight f4 [1, 32]
0	0x3eb6a68f	0.3567395
1	0x3b3eb44f	0.0029099172
2	0x338290c5	6.07993e-08
3	0xbe5cb16a	-0.21552053
4	0x3597af58	1.1301408e-06
5	0xbe63030b	-0.2216913
6	0x346bcbc0	2.1960204e-07
7	0xb80343fb	-3.1296146e-05
8	0x3eaf099f	0.34187028
9	0x3dc16260	0.09442592
10	0x3e5ecfb6	0.21758923
11	0xbdab2d2e	-0.08358227
12	0xbe4b996a	-0.19882742
13	0x3e773d45	0.24144466
14	0x3eb512d5	0.3536593
15	0xbe425743	-0.189786
16	0xb5b06f0e	-1.3145343e-06
17	0x3e8519f0	0.2599635
18	0x3ebd9d36	0.37034005
19	0x3e499a2b	0.19687717
20	0xb008a63a	-4.9712734e-10
21	0xbde160ab	-0.11004766
22	0x3d6ac6f7	0.057318654
23	0x3b583871	0.0032992626
24	0x3d4cdd07	0.050015476
25	0xb62096e3	-2.3929686e-06
26	0xbd080aec	-0.03321354
27	0xb254e660	-1.2392405e-08
28	0x371e29c4	9.427258e-06
29	0x33bd30a6	8.8098474e-08
30	0x3b3a6cf5	0.002844629
31	0xba9f54ed	-0.0012156047
