models/regression/neural_networks/2023-02-16_13:10:24/model.pt (torch, 2003 bytes, 3 tensors)

layers.0.weight f4 [8, 11]
00000000: 4ee1 c63e f785 2d3c 524c 663e e480 833d
00000010: 2bdc 843e 1c91 2dbc 8ab4 843e c871 46bd
00000020: 839d 0fbe 48ae 77be 4648 423e 1dc7 1cbc
00000030: 8bf2 96bc 29bc 8bbc 5af3 3abd 0a1c b73c
00000040: d3f4 523c 58f2 833c 2155 c13b cbad 663d
00000050: 8242 ad3c f580 db3c 829c 973e f0c8 cdbd
00000060: f633 7f3e 014c 503e a449 a73e 51e6 923d
00000070: b65b a33e b549 4ebd 82c5 0abe 8406 afbd
00000080: ed81 113e 1c12 2e3e 6f7a 40be 4342 423d
00000090: 9d17 bc3c 1407 093d 84de ccbd 2e1d 3dbd
000000a0: 82b3 87bd bd91 bebd c945 4a3e 3f3b bd3c
000000b0: a419 743c c1ca 13bd 5c04 60bd 4a58 36bd
000000c0: 2d8f 743d 8c16 34bd 310d 53bd 73c8 9cbb
000000d0: f02c 4a3e b137 c6bd b979 7a3b ef8b babc
000000e0: 624e df3b cd73 fbbc 39ab 63bd 9b66 36bd
000000f0: 90d4 843c e1cb 20bd bd8b 80bc a086 403c
00000100: 47e5 d939 40fe 58bd 06b0 80bd 8497 3c3d
00000110: 46f6 413c 8c5e 0fbe 8a18 8ebd 2102 18be
00000120: 2f86 2dbe af70 063d 0fd8 a63e 580f 15be
00000130: 1e10 26bc e362 25bc 26ca f83c 7da3 1d3d
00000140: f213 dcbc 677b 97bd 507c 94bb 87c3 a4bb
00000150: a6b4 f33c 3f5f b73c 9096 d7bc 50db 81bc
0.3884377 0.010591022 0.22490051 0.06421068 0.25949225 -0.010593679 0.2591899 -0.048448354
-0.1402493 -0.24187577 0.18972883 -0.009568957 -0.0184262 -0.017057495 -0.045642234 0.022352237
0.012875753 0.01610677 0.0059000407 0.056318086 0.021149877 0.02679489 0.29611593 -0.100480914
0.24922165 0.20341493 0.3267337 0.071728356 0.31905907 -0.05036326 -0.13551906 -0.08546165
0.14209719 0.16999096 -0.18796705 0.047426473 0.022960478 0.033454016 -0.10003379 -0.046170406
-0.06626035 -0.09305141 0.19753183 0.02309954 0.014898691 -0.036082033 -0.054691657 -0.044517793
0.059706856 -0.043966815 -0.051526252 -0.0047846376 0.19743705 -0.09678591 0.0038219525 -0.022771804
0.006814764 -0.030694867 -0.055583213 -0.044531446 0.016214639 -0.039256934 -0.015691632 0.011750847
0.0004156029 -0.052976847 -0.06283574 0.046042934 0.011838501 -0.1400091 -0.06938274 -0.14844562
-0.16945718 0.032822307 0.32586715 -0.14556634 -0.010135679 -0.010094377 0.03036983 0.038485993
-0.02686498 -0.07396584 -0.004531421 -0.0050281915 0.029749226 0.022384284 -0.026316911 -0.015851647

layers.0.bias f4 [8]
00000000: 1c79 f1bd 72ce ea3c d673 bc3c 422a 27bb
00000010: 904d 233e 287e 053d 04f9 833e b253 13bd
-0.11790678 0.028662894 0.023004454 -0.0025507365 0.15947556 0.032591015 0.2577592 -0.03596849

layers.2.weight f4 [1, 8]
00000000: 4796 0f3f 4909 8abd 35b6 0d3f 5f35 943e
00000010: 9bf3 8bbe a2f6 aabd 0c63 d9be 4f04 b0bd
0.5608868 -0.06740052 0.5535615 0.2894697 -0.27334294 -0.08347823 -0.4245838 -0.08594572
