models/regression/neural_networks/2023-02-16_13:10:28/model.pt (torch, 12475 bytes, 7 tensors)

layers.0.weight f4 [32, 11]
-0.09051571 -0.02438101 0.07193837 -0.031470872 0.04814552 0.020371523 -0.051304106 0.070075355
0.025601147 0.010723384 -0.06468393 0.04217889 0.0644756 0.11778823 0.014167857 -0.050084725
-0.006904658 0.029355384 -0.091288276 0.029932601 0.11000091 -0.060768954 0.22692148 -0.052881148
0.09687808 0.09844827 0.23595342 0.041430105 0.13053435 0.030899264 -0.027647264 0.020678638
0.12071118 0.08345709 -0.11864291 0.08414013 0.03514169 0.1290767 -0.0681698 -0.03600471
-0.016620552 -0.19145814 0.088897154 0.062574625 -0.08772887 -0.07635803 -0.060060702 0.053224515
-0.047120553 -0.023913506 0.05024071 -0.05066397 0.020329015 0.044874046 -0.020372398 0.045085184
0.05588111 0.09275714 -0.06304818 0.031539306 -0.059157677 0.055887174 0.008794544 -0.05437927
-0.09664465 0.01287247 -0.05981432 0.06871034 -0.10117192 -0.029884918 0.084073484 -0.06764309
0.017631102 -0.037390366 0.1318734 -0.028340673 0.05774486 0.12349755 -0.022713754 0.13206518
0.085850805 0.14027207 0.023102025 0.09279458 -0.08040435 0.031387337 0.0040251454 -0.090461895
0.01978099 -0.05676482 -0.0806197 0.05821645 0.045435846 0.027180498 -0.0758469 0.051344045
0.10956908 0.005806995 -0.07162941 0.0012890775 0.018502275 -0.019536652 -0.04686164 -0.06819332
-0.016492415 -0.060823 0.039322212 0.16431837 -0.035623524 0.053243484 -0.08517851 -0.014089394
-0.08286125 0.06701316 -0.023234053 -0.086039156 -0.03540375 -0.08198271 -0.02124883 -0.004191947
0.051684443 0.03367146 -0.055120077 -0.06871957 0.06522907 0.058981065 0.08384484 -0.028580623
-0.033967134 0.11834987 0.024541676 0.012492047 -0.046519678 -0.052751925 0.03645795 -0.07738608
-0.08005798 -0.07379945 -0.10192384 -0.05291283 -0.03340606 -0.0021124224 0.053181533 0.22502637
-0.10576022 0.12663037 0.06929601 0.12729782 0.0050748056 0.2442123 -0.082210936 -0.06044439
-0.07217019 0.15302041 0.09563452 -0.112185664 0.049635045 -0.02711229 0.09983593 0.06301782
0.116648294 -0.07601167 -0.1133522 0.06389108 0.08973125 -0.072077475 -0.054549895 -0.011946734
0.057598323 0.087337926 0.07006914 0.06929006 0.035783857 0.026911676 -0.058152128 -0.021744814
-0.08101918 -0.010486657 0.01775567 0.084840484 -0.0761335 -0.102213085 -0.016419062 0.07627763
-0.10696809 -0.001852459 -0.07523607 0.07450523 0.069883876 0.10055727 0.013627985 -0.03427052
0.07939948 -0.027993927 0.013855621 -0.019680401 -0.03309186 0.12337774 0.08425173 0.010316879
-0.060829584 0.0051895613 -0.060127657 0.083298095 -0.025985638 -0.069717064 -0.023177167 0.076901235
-0.051534906 -0.0030847806 0.106195286 0.02806613 0.065799095 0.021913199 0.09220172 0.05071655
0.031244311 -0.015577976 -0.12838908 -0.081220955 0.15818596 -0.08627758 0.059364166 0.00826144
-0.0060244994 -0.100968674 0.02975483 -0.0752969 -0.022875495 0.04781229 0.14420609 0.206173
-0.044556096 0.10270648 0.048117213 0.22198981 0.07193379 0.119685836 -0.00376919 -0.11636525
-0.10134585 0.102325015 -0.042684775 0.033849828 -0.07694452 -0.052110698 -0.028524142 0.020371052
-0.050747477 0.10077952 -0.022353474 0.04458693 0.0021897203 0.08289492 -0.07919763 -0.018238101
00000000: 4d60 b9bd afba c7bc 6d54 933d 9ae7 00bd
00000010: 3d34 453d 2ee2 a63c 4124 52bd ab83 8f3d
00000020: 7fb9 d13c 22b1 2f3c 0279 84bd c6c3 2c3d
00000030: c90b 843d f53a f13d 4d20 683c a425 4dbd
00000040: 7840 e2bb b47a f03c 59f5 babd 3735 f53c
00000050: 2848 e13d dee8 78bd 1b5e 683e e799 58bd
00000060: 0468 c63d 3f9f c93d c69d 713e 9db2 293d
00000070: ccaa 053e 7420 fd3c 847c e2bc 3f66 a93c
00000080: 6c37 f73d 8deb aa3d 0efb f2bd a951 ac3d
00000090: bcf0 0f3d af2c 043e 9c9c 8bbd ad79 13bd
000000a0: d327 88bc 9a0d 44be b60f b63d 2027 803d
000000b0: 32ab b3bd 9961 9cbd 3602 76bd f301 5a3d
000000c0: 7b01 41bd 42e6 c3bc 34c9 4d3d 0685 4fbd
000000d0: 0989 a63c d9cd 373d 04e4 a6bc 3eab 383d
000000e0: 97e3 643d 75f7 bd3d 671f 81bd 5c2f 013d
000000f0: 524f 72bd f3e9 643d fe16 103c ccbc 5ebd
00000100: a1ed c5bd 0de7 523c dcff 74bd 02b8 8c3d
00000110: 3933 cfbd 37d1 f4bc b82e ac3d 7688 8abd
00000120: 1a6f 903c a426 19bd d209 073e b32a e8bc
00000130: e085 6c3d 49ec fc3d 3212 babc 183c 073e
00000140: 8cd2 af3d 7ba3 0f3e 7540 bd3c 160b be3d
00000150: 09ab a4bd 0290 003d 5ee5 833b 1644 b9bd
00000160: be0b a23c 3a82 68bd f11b a5bd 5f74 6e3d
00000170: f01a 3a3d a3a9 de3c 9f55 9bbd 224e 523d
00000180: c165 e03d 9b48 be3b 71b2 92bd 43f6 a83a
00000190: 1592 973c 540b a0bc fef1 3fbd f0a8 8bbd
000001a0: 1a1b 87bc 8a21 79bd 5410 213d 1343 283e
000001b0: f9e9 11bd d715 5a3d 1272 aebd 34d7 66bc
000001c0: 29b3 a9bd 323e 893d 5755 bebc 4c35 b0bd
000001d0: 8603 11bd 8de6 a7bd 0712 aebc 9a5c 89bb
000001e0: 11b3 533d 16eb 093d 97c5 61bd d9bc 8cbd
000001f0: d296 853d 2196 713d d8b6 ab3d e921 eabc
00000200: 1f21 0bbd 6b61 f23d a00b c93c 71ab 4c3c
00000210: 6b8b 3ebd 6712 58bd ee54 153d 987c 9ebd
00000220: 70f5 a3bd 2b24 97bd 72bd d0bd 20bb 58bd
00000230: cbd4 08bd 9170 0abb e1d4 593d 506d 663e
00000240: d098 d8bd 64ab 013e 11eb 8d3d 5c5a 023e
00000250: 8e4a a63b ca12 7a3e 355e a8bd 8994 77bd
00000260: f7cd 93bd 62b1 1c3e 08dc c33d 99c1 e5bd
00000270: 1e4e 4b3d 981a debc c876 cc3d 7d0f 813d
00000280: 4de5 ee3d 02ac 9bbd 3325 e8bd 54d9 823d
00000290: 05c5 b73d 5b9d 93bd b66f 5fbd 3cbc 43bc
000002a0: 38ec 6b3d 3ade b23d 6980 8f3d f2e7 8d3d
000002b0: 1892 123d e075 dc3c ed30 6ebd 2e22 b2bc
000002c0: 62ed a5bd 3ad0 2bbc 5774 913c d9c0 ad3d
000002d0: e1eb 9bbd 1855 d1bd 4581 86bc 7237 9c3d
000002e0: 1612 dbbd 36ce f2ba 5e15 9abd 3396 983d
000002f0: 471f 8f3d f8f0 cd3d e947 5f3c 3f5f 0cbd
00000300: 329c a23d 8553 e5bc b002 633c cb38 a1bc
00000310: 558b 07bd 78ad fc3d 2c8c ac3d 2008 293c
00000320: 7128 79bd 320d aa3b 6b48 76bd 3198 aa3d
00000330: d5df d4bc d2c7 8ebd 0bde bdbc 657e 9d3d
00000340: 4416 53bd 082a 4abb ea7c d93d f1ea e53c
00000350: adc1 863d 4f83 b33c 41d4 bc3d 28bc 4f3d
00000360: 12f4 ff3c c43a 7fbc 6d78 03be 2c57 a6bd
00000370: 80fb 213e 4db2 b0bd d727 733d fe5a 073c
00000380: 2a69 c5bb aac8 cebd 67c0 f33c 4335 9abd
00000390: 6465 bbbc d2d6 433d c3aa 133e 041f 533e
000003a0: 7480 36bd c657 d23d 8e16 453d 4c51 633e
000003b0: 0652 933d d91d f53d 8404 77bb e750 eebd
000003c0: 6a8e cfbd c78f d13d 3bd6 2ebd 1ea6 0a3d
000003d0: 1795 9dbd 0772 55bd 76ab e9bc 31e1 a63c
000003e0: 96dc 4fbd 7e65 ce3d a21e b7bc c9a0 363d
000003f0: 6981 0f3b d0c4 a93d 5e32 a2bd 1268 95bc

layers.0.bias f4 [32]
0.03560432 0.019175945 -0.04012166 0.07415292 -0.08462309 0.01798714 0.05168032 -0.04499177
-0.06640431 0.0981547 -0.08174066 0.1021034 -0.0024077583 0.09734499 0.12451455 0.05269882
0.034746688 0.05197864 0.04383815 -0.0022832954 -0.012813317 0.053139526 -0.0064345556 0.01574958
0.068492986 -0.08993121 -0.018618427 0.04910195 -0.021573707 0.03571306 -0.0006544635 0.14486347
00000000: d6d5 113d df16 9d3c 9c56 24bd 7cdd 973d
00000010: df4e adbd c459 933c beae 533d 4a49 38bd
00000020: fcfe 87bd 5505 c93d a667 a7bd 961b d13d
00000030: 7bcb 1dbb cf5c c73d 7c01 ff3d b8da 573d
00000040: 8b52 0e3d 8ee7 543d a28f 333d 57a3 15bb
00000050: f2ee 51bc d5a8 593d f7d8 d2bb 4305 813c
00000060: 0d46 8c3d db2d b8bd ac85 98bc 201f 493d
00000070: 58bb b0bc dc47 123d 4d90 2bba 1757 143e

layers.2.weight f4 [32, 32]
0.052227262 0.04534034 0.039620772 -0.013549867 0.031822287 0.04361378 -0.031529356 -0.050361548
-0.03456899 0.017893502 0.018265445 0.0049508903 0.051517405 -0.032400794 -0.05793205 -0.053163428
0.008581802 -0.02025159 0.04226916 0.019248407 0.038124487 0.03204397 -0.036356498 0.0071093063
-0.014886821 -0.009725078 -0.028677937 0.06267762 0.03477249 -0.011174558 -0.004719827 -0.018416867
-0.03413086 0.06203389 0.021571595 -0.03670098 -0.016948733 -0.03534419 -0.026479786 0.010005349
0.045347124 0.032602802 -0.0069930274 -0.0051945234 0.00897741 -0.011262384 0.008977716 -0.017715817
0.009219653 -0.020756625 0.018757017 0.02914257 0.059166048 0.004894568 0.016665809 -0.053425226
-0.044268545 -0.03238947 0.0017580906 -0.009609556 0.028627941 0.018261509 0.0023466614 0.04063845
-0.050541602 -0.024598086 0.03685599 -0.012121047 -0.046104066 -0.06425808 0.054391414 0.04832608
-0.01595047 0.014816561 -0.04204216 0.00025725047 -0.044091996 0.02406319 0.042887118 -0.029175218
-0.009574729 0.012003357 0.025961509 -0.006332394 0.012456759 0.018743413 -0.025577234 0.03394512
0.0052524772 0.047381297 0.04508162 -0.008025763 0.025001954 -0.004322012 -0.06840411 -0.043512948
-0.055197764 -0.014918768 -0.036005564 -0.057229273 0.051113486 -0.0041734595 -0.03574486 0.018442875
0.005157027 -0.032123383 0.00015536815 0.020390522 0.032624133 0.035672937 -0.031423904 0.010887479
-0.041477125 0.019958034 0.044969894 -0.038919818 -0.010388892 -0.038485695 0.048753347 0.018893536
-0.039403513 0.022578498 0.020084498 -0.043750912 0.005341345 -0.024636656 -0.0011678305 0.005902869
-0.012162037 0.045714866 0.028252615 0.0033248493 -0.03838925 -0.0017543762 0.05299043 -0.046044294
0.012404213 -0.04773724 -0.04238726 -0.04973706 -0.008344635 -0.02764372 0.02615155 -0.019986445
-0.04497616 -0.05615532 -0.034597367 0.014156122 -0.019214073 -0.0076164687 -0.034553293 -0.055989802
0.045086276 -0.009260837 0.050856274 -0.0027593882 0.018620873 -0.04966337 -0.030378776 -0.031991865
-0.028600074 0.03884555 0.032182436 -0.05464339 0.032095645 0.01776782 0.01724475 0.031316575
0.010855243 -0.043736476 -0.03188337 -0.052434452 0.019209215 0.023720363 0.010098115 -0.007456744
-0.05705009 -0.033931658 -0.056475237 0.041073862 0.0276583 -0.022720769 -0.016772876 -0.004048559
-0.0015807251 0.010232145 0.024932947 -0.0395205 -0.043789074 0.029638495 -0.01662911 -0.053298794
0.001288116 -0.043748498 0.060723916 0.021839414 0.0074797217 0.010467345 -0.012102979 0.034337938
-0.043108784 0.027808653 -0.021612864 -0.040969245 0.037647367 0.060583405 0.02333112 -0.022708572
0.038344312 -0.0117947245 0.023943117 0.0027909009 0.04000651 0.015874417 0.0018685521 0.010421588
0.03213054 -0.014280866 -0.044883616 -0.037126314 0.027602313 0.048925944 0.051370207 0.05026972
0.015893733 0.0482739 0.022395354 0.037263323 -0.027594764 -0.007221703 -0.06306802 0.0550475
0.017542863 -0.008316282 0.044514574 -0.024875619 -0.027469581 0.0005602202 0.06853188 0.0043989806
-0.0046966895 0.035952687 -0.011764831 0.050009444 0.027739685 0.03931028 0.00949233 0.009296833
0.013470111 -0.027403641 -0.037057307 -0.017966222 0.04281625 -0.043357592 0.030992776 0.06635107
00000000: 41ec 553d cbb6 393d 6449 223d 4300 5ebc
00000010: 1658 023d 5da4 323d ed24 01bd e947 4ebd
00000020: 3798 0dbd 6595 923c 6aa1 953c 143b a23b
00000030: ea03 533d b2b6 04bd 284a 6dbd e5c1 59bd
00000040: b09a 0c3c aae6 a5bc 6d22 2d3d d6ae 9d3c
00000050: 6c28 1c3d 8a40 033d 8dea 14bd 2ff5 e83b
00000060: dae7 73bc ef55 1fbc feed eabc 205d 803d
00000070: 996d 0e3d 7e15 37bc c7a8 9abb f8de 96bc
00000080: cdcc 0bbd 4017 7e3d eab6 b03c c453 16bd
00000090: 12d8 8abc 12c5 10bd 23ec d8bc 7aed 233c
000000a0: e8bd 393d 848a 053d c425 e5bb d236 aabb
000000b0: fd15 133c dd85 38bc 4517 133c c320 91bc
000000c0: 070e 173c cc09 aabc 51a8 993c 66bc ee3c
000000d0: 1958 723d 9d62 a03b bc86 883c 69d4 5abd
000000e0: ef52 35bd d2aa 04bd bb6f e63a 6671 1dbc
000000f0: 2585 ea3c 2999 953c 72ca 193b 8174 263d
00000100: b604 4fbd ed81 c9bc 4ef6 163d 5b97 46bc
00000110: 9ed7 3cbd be99 83bd 88c9 5e3d 91f1 453d
00000120: 8faa 82bc 29c1 723c 6634 2cbd 93df 8639
00000130: cf99 34bd 2b20 c53c 67aa 2f3d de00 efbc
00000140: 53df 1cbc baa9 443c 3bad d43c f97f cfbb
00000150: 6f17 4c3c c98b 993c 5987 d1bc 0a0a 0b3d
00000160: f91c ac3b e412 423d 81a7 383d 7d7e 03bc
00000170: e6d0 cc3c aa9f 8dbb 7417 8cbd a23a 32bd
00000180: 0d17 62bd d96d 74bc 927a 13bd 3e69 6abd
00000190: 605c 513d 84c1 88bb 3469 12bd 8315 973c
000001a0: 47fc a83b cf93 03bd 52ea 2239 060a a73c
000001b0: e2a0 053d c91d 123d 5ab6 00bd 6661 323c
000001c0: ebe3 29bd 087f a33c 5a32 383d 636a 1fbd
000001d0: 2c36 2abc 2da3 1dbd 97b1 473d 9ec6 9a3c
000001e0: 9465 21bd 8bf6 b83c 3f88 a43c 2834 33bd
000001f0: 7306 af3b d0d2 c9bc e411 99ba db6c c13b
00000200: 4843 47bc 833f 3b3d 0772 e73c b7e5 593b
00000210: 0c3e 1dbd 19f3 e5ba 7e0c 593d f198 3cbd
00000220: 0a3b 4b3c 2088 43bd 439e 2dbd 16b9 4bbd
00000230: f0b7 08bc 1575 e2bc c63b d63c 9dba a3bc
00000240: ec38 38bd 1f03 66bd f8b5 0dbd 14ef 673c
00000250: d566 9dbc 9293 f9bb c187 0dbd 9055 65bd
00000260: 63ac 383d c4ba 17bc ab4e 503d dad6 34bb
00000270: cd8a 983c d16b 4bbd e9dc f8bc e709 03bd
00000280: b44a eabc 831c 1f3d bbd1 033d bfd1 5fbd
00000290: b976 033d d28d 913c dd44 8d3c cf45 003d
000002a0: 30da 313c 0525 33bd 2398 02bd 82c5 56bd
000002b0: a55c 9d3c 3551 c23c 9072 253c b457 f4bb
000002c0: 5bad 69bd ecfb 0abd 9452 67bd 113d 283d
000002d0: a993 e23c e820 babc 4567 89bc c6a9 84bb
000002e0: 5530 cfba baa4 273c 2e40 cc3c 3fe0 21bd
000002f0: 2c5c 33bd 6ecc f23c c539 88bc d64f 5abd
00000300: 00d6 a83a a031 33bd a4b9 783d 92e8 b23c
00000310: 7418 f53b 3a7f 2b3c 934b 46bc f0a5 0c3d
00000320: d692 30bd f9ce e33c 760d b1bc 5ecf 27bd
00000330: 2034 1a3d 4e26 783d e820 bf3c 5407 babc
00000340: ed0e 1d3d a93e 41bc 5b24 c43c 8ce7 363b
00000350: dedd 233d 110b 823c 34ea f43a 4fbf 2a3c
00000360: 509b 033d 4bfa 69bc e2d7 37bd c311 18bd
00000370: 3f1e e23c 9266 483d 9169 523d 9fe7 4d3d
00000380: 9333 823c daba 453d 7676 b73c 6da1 183d
00000390: 6a0e e2bc 09a4 ecbb ce29 81bd 7d79 613d
000003a0: 0db6 8f3c 0441 08bc ea54 363d f4c7 cbbc
000003b0: e307 e1bc bedb 123a 715a 8c3d 5325 903b
000003c0: b0e6 99bb 2043 133d 47c1 40bc b4d6 4c3d
000003d0: 563e e33c d103 213d b885 1b3c be51 183c
000003e0: beb1 5c3c 9a7d e0bc 67c9 17bd e62d 93bc
000003f0: 1860 2f3d bb97 31bd 90e4 fd3c 12e3 873d

layers.2.bias f4 [32]
-0.037798017 0.048816536 -0.038172737 0.001090758 0.025333663 0.0035880115 0.021771604 0.020315379
-0.010493515 0.016410619 0.050969694 -0.032513227 0.0010348014 0.049138103 -0.0005005538 0.012271465
-0.0075876443 -0.009041338 -0.04133133 -0.051264517 0.026723709 -0.05413433 0.04820254 0.10048811
0.0361751 0.048762992 -0.0522782 0.08806439 -0.035816275 0.0006085283 0.021443859 0.05716873
00000000: 18d2 1abd d9f3 473d 045b 1cbd c4f7 8e3a
00000010: 8b88 cf3c d824 6b3b 5d5a b23c 706c a63c
00000020: feec 2bbc 906f 863c 99c5 503d 972c 05bd
00000030: 2ca2 873a 0945 493d 9937 03ba 410e 493c
00000040: c6a1 f8bb 1f22 14bc 0a4b 29bd befa 51bd
00000050: aeeb da3c f6bb 5dbd 0770 453d b6cc cd3d
00000060: 572c 143d b4bb 473d aa21 56bd 1a5b b43d
00000070: 16b4 12bd a585 1f3a 08ab af3c c229 6a3d

layers.4.weight f4 [32, 32]
-0.04705819 -0.055789992 0.016962498 -0.009437072 -0.026499996 -0.00052249467 0.019278668 -0.026231434
0.050817207 -0.028160196 -0.011294438 -0.04989926 0.05307456 0.026227823 -0.059726015 0.03190837
-0.0016258301 -0.008894439 -0.003957959 -0.021488152 0.01944923 0.014782197 0.03851831 0.0354201
0.0053491746 -0.06494963 -0.05010806 0.059570823 0.029913073 -0.0023584838 -0.007990401 -0.018649772
-0.03235278 0.03612079 -0.054904122 -0.023318853 0.01600981 -0.042722348 -0.0071767797 -0.04396168
0.034997374 -0.008916879 -0.022127537 -0.01813339 -0.052436177 0.022124108 0.054560997 -0.03300192
-0.0059230877 -0.04429306 -0.03648189 -0.00423153 -0.016122025 0.031556316 -0.05160492 -0.009043202
-0.00020031983 -0.04393199 -0.017212959 -0.0034527006 0.004856962 0.060448267 -0.024718354 0.044593114
-0.038306244 -7.203564e-05 0.029501813 0.043613523 0.038711842 0.029921928 -0.056703154 -0.0027595975
0.024625394 -0.045558166 0.05288196 -0.035904612 0.018887926 0.039469723 -0.05656041 0.022883574
0.030581815 0.054460727 0.013161179 -0.047834814 -0.04056877 0.03030837 0.03082169 -0.017789735
-0.041907504 -0.0143336365 -0.05551771 -0.04253928 0.04232816 -0.05076692 9.648703e-05 0.0072605
-0.005771031 0.02541021 -0.038646054 0.0038329342 0.042369433 -0.008093577 0.004463986 0.03210781
-0.021166315 0.0061417962 0.016405884 -0.02693686 0.05208427 0.010952951 0.033865098 -0.0018306234
0.008676753 -0.04385944 0.037761845 0.019066202 -0.016442569 -0.020892074 -0.0016092899 0.031482387
-0.049691964 -0.03351813 0.02699975 0.0020217637 -0.053861875 -0.05530052 -0.053021003 -0.037556883
0.051149607 0.033445098 0.03348734 -0.0132622095 0.051356856 -0.02624617 0.005130903 0.003402502
0.018828059 0.059406072 0.100323424 -0.020392513 -0.029015109 -0.028311282 -0.019814324 0.048381295
-0.015024983 -0.05383026 0.030408062 -0.032449007 -0.06543549 -0.020885492 0.06794711 0.10935361
0.0018171638 -0.064968996 -0.040156983 0.09012163 -0.017187847 -0.020010153 0.023078086 0.039765697
0.031390768 0.03524129 -0.05342372 -0.027219273 0.027986685 0.006578404 -0.037186846 0.05061943
0.033184066 0.029442927 0.0037473675 -0.030264877 0.04880967 -0.049514364 -0.02200887 -0.0566051
-0.02335629 -0.046788376 0.03822187 -0.02242349 0.04565065 0.052796293 0.005446661 0.0423789
0.013545968 -0.042887263 -0.0054158317 0.004387535 0.04694513 -0.029975519 -0.013208915 -0.029823497
-0.008098483 -0.013983726 -0.00682587 0.009254575 -0.057045404 -0.046850998 -0.0024520925 0.08306726
0.04428005 -0.040261 -0.07909242 -0.0048359977 0.017378818 0.124845706 0.017700247 -0.015242022
0.011061653 0.002928372 -0.029724848 0.03312551 0.21928488 -0.047341164 -0.0077125924 -0.020912074
0.085235514 0.13582672 0.038927935 -0.02276336 -0.0036988063 0.216119 0.17895798 0.045110196
0.040840924 -0.0049488773 -0.022750888 0.0061026337 0.031189784 0.030286146 0.0069488366 0.022241939
-0.002156659 -0.037804656 0.021346793 -0.03946158 0.04543388 0.04714182 0.01625587 -0.039055537
0.017311316 -0.029438721 0.013206731 -0.033686 0.07016288 0.02066058 -0.05738252 0.049785018
0.052761756 0.027000843 0.059320405 0.0013583516 -0.055951454 0.020270582 0.01865543 0.051843632
00000000: 17c0 40bd 0c84 64bd f0f4 8a3c f39d 1abc
00000010: 8516 d9bc 06f8 08ba 4cee 9d3c 4ee3 d6bc
00000020: b425 503d 36b0 e6bc 4e0c 39bc 2b63 4cbd
00000030: b664 593d bbdb d63c 44a3 74bd 5ab2 023d
00000040: ce19 d5ba fbb9 11bc c4b1 81bb ec07 b0bc
00000050: fe53 9f3c 0731 723c 60c5 1d3d ab14 113d
00000060: 2148 af3b 5004 85bd 1c3e 4dbd 8900 743d
00000070: 430c f53c cb90 1abb 2cea 02bc 68c7 98bc
00000080: 5984 04bd 65f3 133d 25e3 60bd 2e07 bfbc
00000090: 0127 833c a1fd 2ebd 312b ebbb 2a11 34bd
000000a0: 6859 0f3d 1a18 12bc cf44 b5bc 7a8c 94bc
000000b0: 51c7 56bd 9e3d b53c 5a7b 5f3d 052d 07bd
000000c0: 7616 c2bb a46c 35bd 096e 15bd a5a8 8abb
000000d0: 5612 84bc 3241 013d ae5f 53bd f029 14bc
000000e0: f20c 52b9 08f2 33bd 3102 8dbc b446 62bb
000000f0: 2627 9f3b 9a98 773d 257e cabc 45a7 363d
00000100: 02e7 1cbd d711 97b8 c9ad f13c 18a4 323d
00000110: 4f90 1e3d d51e f53c 9141 68bd 5dda 34bb
00000120: 32bb c93c 339b 3abd c19a 583d b710 13bd
00000130: daba 9a3c 01ab 213d e3ab 67bd 5576 bb3c
00000140: b786 fa3c 3612 5f3d fca1 573c 70ee 43bd
00000150: 702b 26bd 4249 f83c c57d fc3c c7bb 91bc
00000160: 34a7 2bbd a1d7 6abc 8a66 63bd ab3d 2ebd
00000170: 4b60 2d3d f9f0 4fbd 1459 ca38 7de9 ed3b
00000180: eb1a bdbb 1329 d03c 534b 1ebd f731 7b3b
00000190: 928b 2d3d ec9a 04bc a146 923b 7b83 033d
000001a0: fb64 adbc 1f41 c93b a265 863c b1aa dcbc
000001b0: 5156 553d 0274 333c 21b6 0a3d 87f1 efba
000001c0: f128 0e3c f5a5 33bd 2aac 1a3d b930 9c3c
000001d0: 91b2 86bc db25 abbc cfee d2ba adf3 003d
000001e0: cd89 4bbd 4f4a 09bd 942e dd3c 917f 043b
000001f0: 459e 5cbd cc82 62bd 8d2c 59bd 3fd5 19bd
00000200: 4082 513d bafd 083d 052a 093d bd49 59bc
00000210: 915b 523d 3502 d7bc 2221 a83b 83fc 5e3b
00000220: 4d3d 9a3c c853 733d 5e76 cd3d 330e a7bc
00000230: 18b1 edbc 10ed e7bc a651 a2bc 772b 463d
00000240: 592b 76bc 1e7d 5cbd 541a f93c 40e9 04bd
00000250: 0b03 86bd 0d18 abbc db27 8b3d c9f4 df3d
00000260: e62d ee3a 770e 85bd a67b 24bd b091 b83d
00000270: 87cd 8cbc 55ec a3bc 410e bd3c 5be1 223d
00000280: 9b93 003d 2c59 103d d5d2 5abd f4fa debc
00000290: 5544 e53c a78f d73b 3c51 18bd 5256 4f3d
000002a0: 04ec 073d 4b32 f13c 6596 753b 0cee f7bc
000002b0: a6ec 473d 93cf 4abd f24b b4bc c0da 67bd
000002c0: b155 bfbc 2ba5 3fbd 898e 1c3d 78b1 b7bc
000002d0: 2dfc 3a3d ed40 583d e779 b23b 7f95 2d3d
000002e0: e8ef 5d3c 8eaa 2fbd 4a77 b1bb 50c5 8f3b
000002f0: 8949 403d 388f f5bc 346a 58bc 6850 f4bc
00000300: 80af 04bc ff1b 65bc 8cab dfbb 80a0 173c
00000310: 71a8 69bd d5e6 3fbd 49b3 20bb 2b1f aa3d
00000320: ff5e 353d b8e8 24bd 35fb a1bd 4a77 9ebb
00000330: 065e 8e3c 1baf ff3d 1c00 913c adb9 79bc
00000340: ef3b 353c eee9 3f3b 8681 f3bc 9dae 073d
00000350: 378c 603e cfe8 41bd eab9 fcbb cc4f abbc
00000360: f58f ae3d 2916 0b3e e672 1f3d 3a7a babc
00000370: ac67 72bb 4d4e 5d3e c340 373e 78c5 383d
00000380: d048 273d 312a a2bb 1260 babc 9af8 c73b
00000390: b881 ff3c a71a f83c 11b3 e33b ba34 b63c
000003a0: bc56 0dbb 0ed9 1abd 78df ae3c 77a2 21bd
000003b0: e018 3a3d c817 413d 082b 853c b3f8 1fbd
000003c0: 76d0 8d3c 7929 f1bc 0b61 583c 55fa 09bd
000003d0: 8eb1 8f3d 6040 a93c ef09 6bbd 60eb 4b3d
000003e0: b61c 583d df30 dd3c f4f9 723d b70a b23a
000003f0: 5a2d 65bd 7e0e a63c 46d3 983c fd59 543d

layers.4.bias f4 [32]
0.072040334 -0.04083416 -0.026369823 -0.04987584 0.22835681 -0.028563783 0.012450543 -0.036891088
-0.030944034 -0.049492825 -0.05279419 -0.016240994 0.027904885 0.09090104 -0.04376781 0.0003067517
0.0033921762 -0.02313053 -0.031044485 -0.05561366 -0.01868268 -0.054952454 0.0003256205 -0.016362978
-0.018445143 -0.04280423 0.015248535 0.013818318 0.06433485 -0.04484721 -0.008175824 -0.041808836
00000000: e289 933d b841 27bd 8705 d8bc 9c4a 4cbd
00000010: 5ed6 693e 98fe e9bc 5dfd 4b3c 1c1b 17bd
00000020: 587e fdbc fdb8 4abd b83e 58bd d50b 85bc
00000030: c998 e43c 532a ba3d e045 33bd 84d3 a039
00000040: 464f 5e3b 3d7c bdbc 0151 febc 26cb 63bd
00000050: 6b0c 99bc d315 61bd 0bb8 aa39 a70b 86bc
00000060: 451a 97bc 7d53 2fbd fed4 793c 3a66 623c
00000070: fdc1 833d b5b1 37bd e4f3 05bc be3f 2bbd

layers.6.weight f4 [1, 32]
-0.071548715 -0.009591323 -0.047566365 -0.0134059535 -0.2828129 0.012567974 0.41191006 0.07938079
0.079519026 -0.039799888 -0.011923809 -0.042815797 0.54401964 -0.093685724 0.003786283 0.20092547
0.16869754 0.04775802 -0.0053750086 -0.059968773 -0.033773527 -0.025020722 0.028574068 -0.056988858
-0.026260827 0.037985787 0.50981504 -0.06529722 -0.08859498 0.018104604 0.18840648 0.028578956
00000000: 2288 92bd ed24 1dbc f3d4 42bd a5a4 5bbc
00000010: dacc 90be e7e9 4d3c e0e5 d23e 6592 a23d
00000020: dfda a23d 3505 23bd 145c 43bc 9e5f 2fbd
00000030: df44 0b3f 4dde bfbd 4a23 783b 68bf 4d3e
00000040: 0cbf 2c3e ea9d 433d d720 b0bb d1a1 75bd
00000050: 1c56 0abd 42f8 ccbc 2a14 ea3c 266d 69bd
00000060: f220 d7bc fc96 1b3d 3d83 023f 8dba 85bd
00000070: 4971 b5bd 1b50 943c a1ed 403e 6a1e ea3c
