models/regression/neural_networks/2023-02-10_16:51:11/model.pt (torch, 2323 bytes, 3 tensors)

layers.0.weight f4 [16, 11]
-0.2509164 0.12486635 -0.194566 0.15490879 -0.31523764 -0.2634864 -0.025854819 0.14100917
-0.14915213 0.07875985 -0.18088864 -0.008110197 0.06534043 -0.16509809 0.23006664 -0.08727213
-0.059351534 0.065650895 -0.054775503 -0.23121928 -0.24194123 -0.17654137 -0.10373851 -0.24305716
-0.09937096 -0.031523786 0.03763596 0.21644194 -0.008382129 -0.12289726 -0.080151275 0.03141938
-0.19683367 -0.02595544 0.23093237 -0.25805974 -0.24239275 0.20404463 -0.027216302 0.23731375
-0.23775722 0.09626094 0.17816825 -0.08782732 0.15326291 0.0055237985 -0.10971427 -0.18966469
0.07987051 -0.20113607 0.06973403 0.01879211 0.39341137 0.023175502 -0.17260297 -0.27450556
-0.16418606 -0.002660452 -0.16990054 0.06873352 0.10032255 -0.2051828 0.030970795 0.3016614
-0.098707974 0.14657687 0.43606794 0.24540097 0.28949893 -0.018348334 0.32065135 0.043468695
0.30467862 -0.031373184 -0.016972303 -0.007965499 0.12235073 0.31187236 0.026007354 0.16117898
-0.14790112 -0.0027108437 0.10695901 0.15128894 -0.14895135 -0.18692942 -0.10871543 -0.1340014
0.05262826 -0.23148376 0.39113575 0.2750021 0.37348858 0.095580116 0.32245174 0.11628077
-0.19374776 -0.2797177 0.07485008 0.16878916 0.29322165 -0.062771946 -0.10266834 -0.3023778
0.026536562 -0.083300814 -0.012038016 0.22592437 -0.22511312 -0.17215806 -0.31377468 0.13758595
-0.14723541 -0.09864369 -0.1877162 -0.027023662 0.054364637 -0.10979047 -0.11523602 -0.106977776
-0.27092373 0.05687808 -0.22385335 0.30731374 0.30916756 -0.021792913 -0.26228428 0.032712784
0.0983134 0.14419152 0.15416192 -0.16253754 0.16097336 -0.06899055 -0.022666663 0.11704509
-0.12588447 0.26795122 0.2152656 0.15169786 0.1814422 0.13961469 0.2853605 -0.19533195
-0.24836177 -0.06340893 0.031699687 -0.30546758 0.21173415 -0.20622538 0.26839793 -0.2562638
-0.31621897 -0.24816792 -0.008118258 0.26696905 0.013135881 0.32944268 -0.05243846 -0.20231174
0.26818386 -0.25117674 -0.17890954 0.05744659 -0.091386825 0.09991383 -0.24610266 -0.28224403
0.0006075891 0.15720192 0.19891563 -0.121904664 0.19337381 -0.0687077 0.3038133 -0.28744423
00000000: 1d78 80be eeb9 ff3d 4f3c 47be 69a0 1e3e
00000010: d466 a1be b0e7 86be 7ccd d3bc b564 103e
00000020: 56bb 18be d84c a13d df3a 39be a2e0 04bc
00000030: 34d1 853d 790f 29be 9796 6b3e bbbb b2bd
00000040: 981a 73bd fa73 863d 475c 60bd bfc4 6cbe
00000050: 71bf 77be 43c7 34be db74 d4bd fae3 78be
00000060: 0083 cbbd 161f 01bd 2a28 1a3d f5a2 5d3e
00000070: 3255 09bc 8fb1 fbbd 5a26 a4bd 9cb1 003d
00000080: c48e 49be 81a0 d4bc 8979 6c3e 6820 84be
00000090: ce35 78be 13f1 503e b9f4 debc 6002 733e
000000a0: a176 73be 7524 c53d bd71 363e cfde b3bd
000000b0: f4f0 1c3e fb00 b53b e0b1 e0bd 7637 42be
000000c0: 2693 a33d 9df6 4dbe b7d0 8e3d e9f1 993c
000000d0: 376d c93e 8dda bd3c d5be 30be fe8b 8cbe
000000e0: 6420 28be fa5a 2ebb 68fa 2dbe 29c4 8c3d
000000f0: e975 cd3d 711b 52be 77b6 fd3c 5d73 9a3e
00000100: 6827 cabd 3f18 163e 4c44 df3e 644a 7b3e
00000110: 3439 943e 3f4f 96bc 6a2c a43e 3b0c 323d
00000120: d6fe 9b3e 2b81 00bd 8009 8bbc b981 02bc
00000130: 0593 fa3d bcad 9f3e 600d d53c 1a0c 253e
00000140: 6473 17be 69a8 31bb 530d db3d 7deb 1a3e
00000150: b486 18be 6d6a 3fbe 32a6 debd aa37 09be
00000160: bb90 573d 140a 6dbe f242 c83e 13cd 8c3e
00000170: e539 bf3e 82bf c33d 6518 a53e 9d24 ee3d
00000180: d065 46be 2937 8fbe 004b 993d 11d7 2c3e
00000190: 2621 963e 948e 80bd c743 d2bd 43d1 9abe
000001a0: 3463 d93c 9e99 aabd 193b 45bc b858 673e
000001b0: 0e84 66be 344a 30be 13a7 a0be 55e3 0c3e
000001c0: e1c4 16be b405 cabd ad38 40be ba60 ddbc
000001d0: 74ad 5e3d d3d9 e0bd dd00 ecbd 2a17 dbbd
000001e0: 84b6 8abe fdf8 683d d039 65be 3a58 9d3e
000001f0: 364b 9e3e 0d87 b2bc 204a 86be d7fd 053d
00000200: 8958 c93d f1a6 133e 9fdc 1d3e 3e70 26be
00000210: 33d6 243e eb4a 8dbd 70af b9bc 56b5 ef3d
00000220: dce7 00be e730 893e 966e 5c3e af56 1b3e
00000230: fccb 393e 27f7 0e3e c51a 923e 1905 48be
00000240: 8c52 7ebe 8bdc 81bd 88d7 013d 3f66 9cbe
00000250: d6d0 583e bf2c 53be 746b 893e 0235 83be
00000260: 74e7 a1be bb1f 7ebe 7102 05bc 2bb0 883e
00000270: e137 573c b6ac a83e b6c9 56bd cf2a 4fbe
00000280: 654f 893e 3d9a 80be 1034 37be 1e4d 6b3d
00000290: 0429 bbbd 9f9f cc3d 5602 7cbe 4a82 90be
000002a0: 9d46 1f3a 8af9 203e 8ab0 4b3e 27a9 f9bd
000002b0: c903 463e 9fb6 8cbd 6b8d 9b3e e42b 93be

layers.0.bias f4 [16]
0.13133487 -0.22377709 0.10878221 -0.26197487 0.3790399 0.40220445 -0.2832854 0.2670915
0.012043224 0.07848816 -0.15514597 -0.25728402 -0.0653448 -0.21598245 0.09506765 -0.06617039
00000000: a67c 063e d225 65be 35c9 de3d 9221 86be
00000010: 8511 c23e beed cd3e c90a 91be 38c0 883e
00000020: f150 453c 67be a03d 96de 1ebe bbba 83be
00000030: 7fd3 85bd 812a 5dbe d4b2 c23d 5784 87bd

layers.2.weight f4 [1, 16]
0.022081574 0.035392728 -0.014289298 -0.15969032 -0.38981223 -0.39152476 0.4202241 0.21418552
0.41463298 -0.17574571 -0.08007686 0.029845279 0.26620382 -0.17504008 0.13721095 0.174055
00000000: 6be4 b43c f7f7 103d a91d 6abc dc85 23be
00000010: 7895 c7be ef75 c8be 9d27 d73e 7353 5b3e
00000020: c64a d43e aff6 33be 56ff a3bd 167e f43c
00000030: de4b 883e b53d 33be 0781 0c3e 793b 323e
